american_put/exp_spxc_0/model_path.pth (torch, 18530 bytes, 11 tensors)

fcs1.0.weight f4 [32, 2]
000000 df e5 15 3f f8 7d e0 be 54 df 07 3f 43 0c 20 bf
       0.5855388 -0.43846107 0.53075147 -0.6251871
000010 7a 40 2d 3e e5 79 d5 be 08 9c c3 3d 63 16 69 be
       0.16919127 -0.4169456 0.09551245 -0.22762446
000020 ae 53 31 3e 54 51 89 be b1 21 86 be fb da 0a 3f
       0.17317078 -0.2681986 -0.2619758 0.5424039
000030 b6 1a 12 bf b7 5f a8 3e 9d 4c 91 be d2 72 37 3d
       -0.5707201 0.32885525 -0.28378764 0.044787236
000040 06 9c 38 3c 0c 62 70 be 26 62 eb be fe 36 05 3f
       0.011267668 -0.23474902 -0.4597332 0.52037036
000050 2c a6 13 bf 90 67 d8 3e 27 cb a6 3e b4 77 2f 3f
       -0.57675433 0.42266512 0.32576868 0.6854203
000060 98 79 11 bf e5 7e e5 be 61 ae e1 be e5 da 26 bf
       -0.5682616 -0.44823375 -0.44078353 -0.65177757
000070 1f 72 97 be e9 8e 2f 3f a1 5e 18 3f e6 98 7b be
       -0.29579255 0.6857744 0.5951939 -0.24570045
000080 3a 4f 05 be 87 18 70 3e 96 75 95 3e 5e 23 0a 3c
       -0.13018504 0.23446856 0.29191273 0.008431284
000090 36 40 c0 3c df 25 85 bc 18 5d 42 3e 89 31 34 3f
       0.023468118 -0.01625341 0.18980825 0.70388085
0000a0 52 95 1c 3f 5e 94 18 bf 35 55 0e 3f d4 47 a4 be
       0.61165345 -0.5960139 0.55598766 -0.3208605
0000b0 b5 1d 81 3c 48 03 b9 be 83 e2 be be 0a c3 b9 be
       0.015761236 -0.36135316 -0.3728219 -0.36281615
0000c0 21 67 dc 3e 4d 98 70 be ba c2 64 3e 2c 3f 4f 3e
       0.4304743 -0.23495598 0.22339907 0.20238942
0000d0 11 05 ba 3e 23 cb c8 3e 52 74 5f be a1 1f ff 3e
       0.3633199 0.3921748 -0.21821716 0.49828818
0000e0 e8 e7 9e be 71 7f bc be cc fe d3 be 45 5b 6e be
       -0.31036305 -0.3681598 -0.41405332 -0.23277004
0000f0 d6 f3 3f bd ab d4 4f 3e ed 82 bd be ce 62 15 3f
       -0.0468634 0.2029597 -0.3701395 0.5835389

fcs1.0.bias f4 [32]
000000 6a 6f 17 3f 5f 20 07 3c 63 04 89 3e 54 b4 b0 3e
       0.5915438 0.008247464 0.2676116 0.3451258
000010 4e da bc 3b f2 44 1b 3c c2 04 55 3e d3 c6 63 bf
       0.0057633286 0.009476887 0.20802596 -0.88975257
000020 67 2e f0 3e 82 13 ff 3e 47 1f a0 3e 7e 8d 1b bf
       0.46910402 0.4981957 0.31273863 -0.60762775
000030 8b 45 c9 3d a9 31 c6 be bc f2 2d bf b3 7b ca 3c
       0.098277174 -0.38709763 -0.6794851 0.024717188
000040 b6 a5 f3 3c 43 32 90 bf 2b d8 1c 3f da b7 ef 3c
       0.029742103 -1.1265339 0.61267346 0.029262472
000050 07 a7 a5 3e 3a c2 9d be ea 71 3d 3e c5 70 19 3f
       0.32353994 -0.30812246 0.18500486 0.599377
000060 0c 5b 9b 3e 16 9b 11 3f 3c 5e c3 3e 8f 68 3e 3e
       0.303429 0.5687727 0.38157833 0.18594573
000070 fb d3 d2 3e d3 22 f2 3e 10 c3 19 3f c4 5e bb bc
       0.41177353 0.47292194 0.60063267 -0.022872336

fcs2.0.weight f4 [1, 2]
000000 59 3a 31 3f 88 43 51 3e
       0.69229656 0.20435917

fch.0.0.weight f4 [32, 32]
000000 aa 92 21 bd d7 e8 90 3e 48 82 b1 3d 91 05 02 3e
       -0.03944651 0.28302643 0.08667427 0.12697436
000010 08 2d a7 3d dc c5 80 bd 4e c9 7f be 1b 4c 45 be
       0.08162886 -0.06287739 -0.24979135 -0.19267313
000020 13 7d 92 3e 3e 09 52 be 72 d9 30 3d a8 e0 17 bc
       0.2861105 -0.20511338 0.043176122 -0.009269871
000030 b8 3a ff 3d 5e 35 1a 3d 28 d5 7c be e2 7a 85 3e
       0.124623716 0.03764855 -0.24690688 0.26070315
000040 ff 88 5f bb 94 79 17 3e 3d ee 2c 3e 1c d4 9f bd
       -0.0034108756 0.14792472 0.16887756 -0.078041285
000050 22 67 3a bd 22 b3 30 3e de 14 a9 3d 6e 01 67 3e
       -0.04550851 0.17255834 0.08255933 0.22559139
000060 7b 95 a2 3c fc 90 d9 bd 98 de 5f bd 8e 5e 16 be
       0.019846668 -0.10623357 -0.05465564 -0.14684507
000070 39 0f 83 3e 74 88 ab bc f4 bf 92 be 30 bc 65 be
       0.2559755 -0.02093909 -0.28662074 -0.22435069
000080 ec 07 19 3e 1a 20 db 3d 84 20 32 3e b9 5b 9e 3e
       0.14944428 0.10699482 0.17395216 0.30929354
000090 04 18 90 3d 89 e8 53 bd 68 ff 81 bd 62 34 0a bd
       0.070358306 -0.051735435 -0.06347543 -0.033741362
0000a0 b2 92 2a 3e ee e9 ea 3c d4 53 1f be 02 a0 22 be
       0.16657522 0.028676 -0.15559322 -0.1588135
0000b0 c3 b7 2a 3d 4b 24 9b bb 29 15 ae 3b 41 55 00 3d
       0.041679155 -0.004734551 0.005312581 0.031331304
0000c0 d6 3a 8d be f9 f2 73 3d 75 c3 04 bd 3e 9b 0e be
       -0.2758395 0.05955789 -0.032412965 -0.13926408
0000d0 f6 0f 13 3e 18 31 80 3e 62 c3 8b 3d 65 26 82 3e
       0.14361557 0.25037456 0.06824376 0.25419918
0000e0 62 e7 ee 3d 28 56 85 be cc b8 7c be 5d e9 9f bd
       0.116652265 -0.26042295 -0.2467987 -0.078081824
0000f0 68 65 6c 3e 88 4e 5f 3e a1 06 f3 bd d9 f9 8b 3c
       0.23085558 0.21807301 -0.11866499 0.01708691
000100 b2 0e 0c be 9b 93 01 3d b2 57 c3 bd dc 34 dc bd
       -0.13677481 0.03163491 -0.09538211 -0.107522696
000110 a4 0e f1 bd 07 9b 81 bd 08 d4 bf 3d 8b 93 3e be
       -0.117703706 -0.06328397 0.093666136 -0.1861097
000120 ee 86 9e bd 36 cf 1c 3e fa 30 f6 bc 98 c3 08 bd
       -0.077405795 0.1531342 -0.03005265 -0.033389658
000130 0a a1 cc 3d ee a4 c3 bd 46 b7 1e be ca 1a 05 3d
       0.09991653 -0.09552942 -0.15499601 0.03249625
000140 c4 6c 08 3e 25 52 56 bf 92 e6 ec 3e 14 dc f4 3c
       0.13322741 -0.8371909 0.4626966 0.029890098
000150 2e 6a 91 bc ee 44 18 3c 22 74 27 bd 66 62 2e bc
       -0.017750826 0.009293778 -0.040882237 -0.010643577
000160 45 ae c8 bd 93 21 23 be fb 12 3b bd 01 9c 32 be
       -0.09798864 -0.15930776 -0.045672398 -0.17442323
000170 ff b2 d4 3d 01 94 8c 3d 2f 36 39 be e1 50 e4 bd
       0.10385703 0.06864167 -0.18087076 -0.11148239
000180 c9 b3 93 3e 2c a6 86 3e df b5 68 3e c7 70 53 3c
       0.28848103 0.26298654 0.22725628 0.012905306
000190 23 54 43 3e f2 03 1b bd aa b2 f4 3b 3c 82 4b 3d
       0.19075064 -0.03784556 0.0074675875 0.049684748
0001a0 36 69 8b 3d 22 ba e8 bd 65 c9 05 be 1a 6a ac bd
       0.06807177 -0.11363627 -0.13065107 -0.08418675
0001b0 d9 d6 d1 bc d3 8b 3d 3e 5f 37 2a be 09 01 71 3e
       -0.025615143 0.1851037 -0.16622685 0.23535551
0001c0 78 f3 af bd 44 2e ac 3d e9 1c 1e bc 19 c0 2e be
       -0.0859136 0.08407262 -0.009650447 -0.17065467
0001d0 c8 1b 81 3e 35 80 8f 3e 13 e9 cc 3c 7b 30 96 3e
       0.25216508 0.28027502 0.025013482 0.29333863
0001e0 bb 9d 58 3e fa 90 2f be 57 1e 41 be 48 36 91 be
       0.2115392 -0.17145148 -0.1885923 -0.28361726
0001f0 bb d7 54 bd 7e 92 92 3e c8 f2 91 be 27 d6 39 be
       -0.05196355 0.2862739 -0.2850554 -0.18148099
000200 1b 89 13 be 84 ae d1 3d 1b 45 21 3c e2 7f e7 3d
       -0.1440777 0.10238364 0.009843136 0.113036886
000210 5c 49 0b bd 88 9e 8f 3d 16 27 02 3e a5 d8 bb 3d
       -0.034005508 0.07012659 0.12710223 0.09172181
000220 cc 1e 4c 3d 55 33 51 3c 20 41 89 3d 38 75 bb bb
       0.049834058 0.012768586 0.06701875 -0.0057207607
000230 6c bf f7 3d 84 7d 76 bd 23 04 33 3e c8 28 92 3d
       0.12097058 -0.060178295 0.17482047 0.07136685
000240 f5 bf 30 3e 2b a8 57 3f 6e e6 14 bf b0 d2 7c 3d
       0.17260726 0.8424098 -0.5816411 0.061724365
000250 c4 43 84 3d f9 7d 02 3e 58 67 fe 3d 72 e1 12 bb
       0.06458238 0.12743367 0.12422055 -0.0022412208
000260 4c 80 d3 3d a6 bf 79 bc 9f e9 a1 bc af db 7f bd
       0.10327205 -0.015243446 -0.01976472 -0.062465366
000270 e1 70 ed 3c 88 6b 84 3d 55 2e 23 3e c8 58 f0 3d
       0.028984489 0.064658225 0.15935643 0.11735684
000280 24 6a 8e bd fb f5 31 bd 82 b2 38 be 56 ad d9 bd
       -0.069538385 -0.043447476 -0.18036845 -0.10628764
000290 f0 9e 83 be dd d2 b7 3c f0 61 7f 3e 6c b3 0f 3e
       -0.25707197 0.022439415 0.24939704 0.14033288
0002a0 f1 cf f6 3b 3e 78 cd 3d fb 58 38 3e ab 25 a0 3e
       0.0075321128 0.100327 0.18002693 0.31278738
0002b0 99 ea 82 be 6e f9 f0 bd db ed 13 3d 71 7b ab be
       -0.2556961 -0.11766325 0.03611551 -0.33492616
0002c0 bc 22 36 3e aa 92 1f 3e 37 35 f9 bd c4 9f 28 bc
       0.17786688 0.15583292 -0.12168353 -0.010291997
0002d0 61 1d 1c bd e9 d2 57 bd 28 25 ea bb 06 13 54 bc
       -0.038113955 -0.052691374 -0.0071455427 -0.012943989
0002e0 12 e3 e9 3b 3f ca 28 3e f6 de 8f 3e bf 2b 20 3c
       0.0071376646 0.16483401 0.28099793 0.009776055
0002f0 ee f3 33 be 14 e4 67 be 94 84 95 3e 7a 3c 62 3e
       -0.1757352 -0.22645599 0.29202712 0.22093382
000300 56 13 97 bd be cf 8c bd 9b 42 5e bd fa 96 d1 3d
       -0.07376735 -0.06875561 -0.05426274 0.102338746
000310 40 b7 71 bc 4c 32 b3 bd 31 db 68 bb a0 b6 33 3e
       -0.014753163 -0.08749828 -0.003553104 0.17550135
000320 4e 3f a2 bd f4 8f 92 bc 64 e2 ef 3c 62 bf ae bd
       -0.07922231 -0.017890908 0.029282756 -0.08532597
000330 74 92 ef bd de 25 b7 bd 38 05 e9 3d 04 3d 9b bd
       -0.116978556 -0.089427695 0.113779485 -0.07579997
000340 65 3b 28 3d 4d e8 06 be 90 a2 2a 3f 00 c3 86 3d
       0.041072268 -0.13174553 0.666543 0.06580162
000350 0a d5 20 be 64 7e ce 3c f0 c4 db bd 60 52 24 be
       -0.15706268 0.025206752 -0.10730922 -0.16047049
000360 48 cd 76 bd 3b 46 d9 3d 1b 6e 44 3e a8 58 0c bc
       -0.060254365 0.106090985 0.19182627 -0.008566059
000370 f5 6f 0d be 52 ba 25 3d 94 d1 2a ba 0d 3d 10 3e
       -0.1381224 0.040460892 -0.0006516215 0.14085789
000380 80 24 70 3d 88 9f 1b bb e8 51 00 be 8d a0 ae bd
       0.05862856 -0.002374621 -0.12531245 -0.085267164
000390 ff 73 01 3d ae d3 aa bb fc 39 13 bd a8 46 cb 3e
       0.031604763 -0.0052132225 -0.03594397 0.39702344
0003a0 17 8a 4a be bc 5c 00 3e cf 18 01 bd 74 83 45 3d
       -0.1977924 0.12535375 -0.0315178 0.048221067
0003b0 65 2c 73 be 2f ad cf bd 3e a7 1f 3d e3 82 80 3d
       -0.23747404 -0.10140454 0.038977854 0.06274965
0003c0 17 9d 86 3e 60 3a 69 bd ce 4a 39 be 01 02 a2 3d
       0.26291725 -0.056940436 -0.18094942 0.079105385
0003d0 73 25 17 be 82 bc 59 bd ed 7c 8b 3c c1 7b fc bd
       -0.1476038 -0.05315829 0.017027343 -0.12328292
0003e0 1f 2e 25 bb 1c 8d 12 3e 75 18 89 3e fb 2b 8e 3c
       -0.0025204492 0.14311641 0.26776472 0.017354956
0003f0 ab c3 67 3c e8 74 14 3d 2a 70 74 3e 0c ec e2 3d
       0.014145772 0.036244303 0.23870912 0.110801786

fch.0.0.bias f4 [32]
000000 1e 9e aa bd 87 02 b7 bc d9 82 13 3e a1 44 94 be
       -0.0833094 -0.022340072 0.14405383 -0.2895861
000010 55 d0 8c bd 1c c8 68 3e bf e0 1e 3d 38 89 60 bd
       -0.06875674 0.22732586 0.038788553 -0.054818362
000020 f9 a1 51 be 4f 3b 0f 3d 35 0b 5c be 9f 9b 73 3e
       -0.20471944 0.03496867 -0.2148865 0.23789833
000030 e6 c0 9c 3d d4 eb 9d 3c d1 3d 0a 3d da 41 80 be
       0.0765398 0.01927749 0.03375036 -0.2505024
000040 d6 00 f0 bd 67 7d 20 be f7 f9 20 3e 92 73 67 3d
       -0.117189094 -0.15672837 0.15720354 0.0565067
000050 ad ff 40 bd 25 58 4c bc e3 f8 a7 bd 29 c5 16 3e
       -0.04711883 -0.012472187 -0.08201768 0.14723648
000060 74 4f a4 bc 3c 5f ea 3d e9 bd a9 3d c3 a7 8c 3e
       -0.020057417 0.11443946 0.082881756 0.27471742
000070 9c bd 88 3e 50 ce 03 3e 22 6b 57 3c 40 b4 2d be
       0.2670716 0.1287167 0.013148101 -0.16963291

fch.1.0.weight f4 [32, 32]
000000 74 d4 f0 3d 66 0d ca 3b fc d8 30 be 51 6d 47 bd
       0.11759272 0.006166148 -0.17270273 -0.048688237
000010 6b 30 d4 3e df 95 aa 3d bf 9b bd bd 61 8c 30 bd
       0.4144319 0.08329367 -0.09258222 -0.043102626
000020 c2 cf 17 be 47 64 2e 3d 29 25 8f bd ba 56 72 bd
       -0.14825347 0.0425761 -0.069895096 -0.05916474
000030 f6 4e a3 be 9b 65 7d bd db f5 88 bd 1e 3d 85 bd
       -0.3189618 -0.061864477 -0.06687518 -0.06505798
000040 78 89 84 be 80 3d 0b 3f b5 40 96 bd 6c 56 ba be
       -0.2588613 0.54390717 -0.07336561 -0.3639406
000050 cb 7d 35 3e cb 9b d3 3b d6 29 3a 3e 6e b3 97 3c
       0.17723767 0.006457781 0.18180022 0.018518176
000060 12 1f 52 3d 99 93 45 bd 1f 19 b6 3d 2b b1 13 3e
       0.051299162 -0.048236463 0.0889151 0.14423053
000070 ea a9 3f 3e 31 56 60 be 24 fe 2b 3d f0 ba 8c 3d
       0.18717161 -0.2190788 0.041990414 0.06871593
000080 b4 b8 04 3e 0f 39 2d 3e f5 66 51 3e 8e ab ae 3d
       0.12961084 0.16916297 0.20449431 0.08528815
000090 ee 83 39 3e 47 b4 7c bd dc e9 1d 3d 2c 89 bd bd
       0.18116733 -0.061695363 0.038553104 -0.09254679
0000a0 b2 db 6b 3e c0 cd 8b 3d 29 de fe 3d 4d e8 c0 be
       0.23033026 0.06826353 0.124447174 -0.3767723
0000b0 db 27 2b 3e 09 29 ac bd b5 77 99 bd d8 51 64 3e
       0.16714422 -0.08406264 -0.074935354 0.22296846
0000c0 ca 1b 86 3c cc c0 4e 3d d2 70 12 bc af d2 b2 bd
       0.016370673 0.050476834 -0.008938031 -0.08731591
0000d0 33 79 ca 3d b4 73 7c 3e 26 f4 90 bd b5 07 02 be
       0.09886398 0.24653512 -0.070778176 -0.12698252
0000e0 1f f2 46 3d db 95 61 3c 4b c0 5a be ad 2e 24 bd
       0.04857075 0.0137686385 -0.21362416 -0.040083576
0000f0 62 95 d9 3d d7 70 11 be bd 6e 0e be a5 e9 ba 3b
       0.10624196 -0.14203201 -0.13909431 0.005704122
000100 2b 09 38 3d 20 9c 10 be 11 1c 6b 3e ab 04 19 be
       0.04493062 -0.14122057 0.22959925 -0.14943187
000110 33 11 54 be 73 91 21 be 16 fc 6e 3d 19 3d 54 be
       -0.20709686 -0.1577814 0.058345877 -0.20726432
000120 ac fb 21 3e e3 18 a2 3d ae a7 86 bd 06 9c 1d 3e
       0.15818661 0.07914903 -0.06574951 0.1539155
000130 be 53 95 3e 63 82 3f be 43 de 84 bd 19 16 28 3e
       0.29165453 -0.18702082 -0.064877056 0.1641468
000140 11 00 9a 3e 5e 57 93 be ce 59 63 3e 4c a2 79 3e
       0.30078176 -0.28777593 0.22202227 0.24378318
000150 e0 53 e6 3c 37 6e 42 3e 5a b6 b6 3d 19 e0 c0 bd
       0.028116167 0.18987356 0.089214996 -0.09417743
000160 d8 c2 e5 3d 9d be 0f 3e ab d5 65 bd bf 34 c7 38
       0.11218804 0.14037557 -0.056111973 9.498884e-05
000170 98 fe ec bd 31 fc db 3e 69 6f 40 3e 31 fd e3 3d
       -0.115719974 0.42965844 0.187925 0.11132277
000180 18 b7 03 bd f2 17 1d bd 1b 7b b6 be d4 ff d4 3c
       -0.032157034 -0.038352914 -0.35640797 0.026000895
000190 3a eb 85 3d 22 61 03 3e 6b ce 9e 3c dd 4f 5c 3e
       0.065390065 0.12830022 0.019385537 0.2151484
0001a0 69 99 b4 3d 48 8b e0 3d 8f d1 0e 3d 70 42 3d 3e
       0.08818323 0.10964066 0.03486782 0.18482375
0001b0 83 d5 cd be b1 13 43 3e 65 98 5b bd dc 0a 74 bd
       -0.4020196 0.1905048 -0.05361213 -0.05958067
0001c0 f3 f6 a6 bd 44 f3 0c 3f 0d 85 f1 be 34 3d 49 be
       -0.081525706 0.55058694 -0.47171822 -0.19652253
0001d0 fa 69 10 be c5 22 1f 3e 87 db b6 3d ad a7 1d 3c
       -0.14102927 0.15540607 0.0892859 0.009622497
0001e0 57 ff bd 3d 7e 16 4f 3d 0e ef 87 3d a8 63 e4 bd
       0.09277218 0.05055856 0.06637393 -0.111518204
0001f0 b2 80 9a bd 82 35 3b be b1 dc 4f 3d 86 e6 43 3e
       -0.07544078 -0.1828213 0.050747577 0.19130906
000200 63 e6 48 be 1f 3a d3 3d 66 81 36 be 9b 98 14 3e
       -0.19619136 0.1031382 -0.17822799 0.1451134
000210 88 bc 66 3c 6c e7 26 3d be 3e 9c bd 49 2d af 3d
       0.014083035 0.040748045 -0.076291546 0.08553559
000220 e8 5e 8d bd c3 76 2c be 1d 87 74 3c d8 30 1b be
       -0.069028676 -0.16842179 0.014924792 -0.15155351
000230 6e 3d 28 be 9e 88 d8 3c 4a fd da bd 08 62 4d be
       -0.16429684 0.026432332 -0.10692842 -0.20056927
000240 98 a3 84 bd 21 36 3d 3e 00 df ce be db 39 a4 be
       -0.064765155 0.1847768 -0.4040451 -0.3207539
000250 e9 4e 13 3e 0d 65 92 3c d0 26 3f be 41 c5 15 3e
       0.1438557 0.01787045 -0.1866715 0.14626028
000260 ad c7 11 be ef fd f4 bd 0c 7e 36 3d 72 5b 29 3e
       -0.14236327 -0.119624965 0.0445538 0.1653879
000270 0c c0 ed 3d 2e e4 52 be ae e3 a4 be c3 7c 6b 3c
       0.11608896 -0.20594856 -0.32204956 0.014373007
000280 50 e8 cf 3d 22 75 02 be d4 9d b0 3e fc 69 7a 3d
       0.10151732 -0.12739995 0.34495413 0.06113623
000290 e4 b2 9a be 16 d2 97 bc ad 7e cc 3c 98 3c 5d 3c
       -0.30214608 -0.018532794 0.024962747 0.013503216
0002a0 1b b1 6d bd 06 5f 31 3e 62 0f c5 3d df eb 98 bd
       -0.05803023 0.17321405 0.09622075 -0.07466864
0002b0 f9 ca a0 3e 58 be f1 3d 0f 49 b2 3d c6 d6 cc bd
       0.31404856 0.11803883 0.08705341 -0.10001902
0002c0 46 a7 f0 3c 29 f2 85 be 0d 94 47 3e 4a a7 3c 3c
       0.029376637 -0.26161316 0.1949007 0.011514494
0002d0 88 17 54 bd 74 37 01 be f6 b8 9a 3d 1f 6d 64 bd
       -0.051780254 -0.1261881 0.0755481 -0.05576813
0002e0 06 4f ec 3d 9f 81 c4 3d 16 83 a2 3d 9c 55 2b be
       0.1153851 0.09595036 0.07935159 -0.16731876
0002f0 e4 42 09 bc d6 ef 3f 3e 2f 3e 11 3e 71 30 4b be
       -0.008377764 0.18743834 0.14183877 -0.19842698
000300 39 36 29 be 1e 39 73 be 45 6b 14 be ae db 11 b9
       -0.1652459 -0.23752257 -0.14494045 -0.00013910115
000310 37 2e 20 be e3 58 6b 3e b0 34 b3 bd 32 d5 dc 3d
       -0.1564263 0.22983126 -0.08750284 0.10782851
000320 25 52 49 be 6d b5 1f 3e 5d b1 08 be b0 11 ba 3e
       -0.19660242 0.15596552 -0.13348909 0.3634162
000330 13 69 43 be 4a 0a 0f be 4f e3 ff bc 76 1c 70 3d
       -0.19083051 -0.13968769 -0.031236319 0.058620892
000340 25 09 cd bc 03 03 05 3d 9b 03 34 be a3 6b 58 3e
       -0.025028775 0.032473575 -0.175795 0.2113481
000350 51 cc 33 3c b9 7a 21 be 2a e5 b7 bd 5c f9 e6 3d
       0.010974006 -0.15769471 -0.089792565 0.1127803
000360 75 88 a5 be 3b 4a 10 3e d7 d3 b1 3d 7c 77 b7 3d
       -0.3233067 0.14090817 0.08682983 0.08958337
000370 8a 41 16 bb 63 04 c5 3d 00 7a dc 3d 65 fa 2b 3e
       -0.0022927248 0.09619977 0.10765457 0.16794737
000380 2c 36 e5 3c 0e 08 66 3d ac 96 34 3e b5 24 a7 bd
       0.027979933 0.056160025 0.17635602 -0.08161298
000390 17 f4 29 be a9 66 12 3e 6b e8 22 bd 46 b7 fe 3d
       -0.16597019 0.14296974 -0.039772432 0.124373004
0003a0 13 3b fd 3c 5c b6 89 3e fd e7 8a 3c 2c 55 eb bd
       0.030911958 0.26896942 0.016956324 -0.114908546
0003b0 a6 74 84 3e f5 39 18 3e 9a 0d 21 be 6e 82 88 bd
       0.25870246 0.14865859 -0.15727845 -0.066655025
0003c0 13 7d a6 3e e1 4e 94 be 69 85 3b 3e 66 56 78 3e
       0.325173 -0.2896643 0.1831261 0.24251708
0003d0 b1 da 98 3c 28 ca ae bd 27 ac 02 be 0d e1 15 3e
       0.018658968 -0.08534652 -0.12760983 0.14636631
0003e0 ad 75 a0 3c a5 a6 2e be ee eb bc bd cb 61 21 be
       0.019587362 -0.17055757 -0.092246875 -0.15759961
0003f0 d7 ac ac 3d e8 d4 bc 3e bd ba 86 3e c5 8b 27 be
       0.08431404 0.36881185 0.26314345 -0.16361912

fch.1.0.bias f4 [32]
000000 72 84 c9 bd 3a 27 81 be 0c a2 21 be d2 38 10 be
       -0.09839715 -0.2522524 -0.15784472 -0.14084175
000010 eb 83 07 be be c4 05 3e 7f 7d 74 3e 50 0b e1 3d
       -0.13233916 0.13063332 0.23875998 0.10988486
000020 c5 08 6f be f4 aa 0d bc e4 d6 a9 bc 6f 59 0c 3e
       -0.23343189 -0.008646715 -0.02073235 0.13705991
000030 87 94 89 bc 60 cf f5 3b ce ff c1 bc 2e b7 00 be
       -0.016794456 0.0075015277 -0.023681547 -0.12569878
000040 a8 da e9 3c 95 ea 18 bd c7 1e 4a 3d c1 15 03 3e
       0.028546646 -0.03733309 0.049345758 0.12801267
000050 1d b5 1c be 7d 3b c0 bd 90 d2 1a be df c3 e7 3d
       -0.15303464 -0.093863465 -0.15119386 0.11316656
000060 be b9 5c b8 14 78 d5 3c 6e 40 5b 3d 32 be b6 bc
       -5.2625073e-05 0.026058234 0.05352824 -0.022307489
000070 57 c3 94 3d 00 56 12 3e 72 29 5a 3e 36 d1 b3 3d
       0.072638206 0.14290619 0.21304873 0.08780138

fch.2.0.weight f4 [32, 32]
000000 95 24 32 3c 96 6c 90 bd 92 40 88 be fb ae 0b 3e
       0.01087298 -0.07051961 -0.26611763 0.13640969
000010 d1 39 1c 3e 8c ca 86 3d 31 eb e5 3d be 37 0b 3e
       0.1525643 0.065816015 0.112265 0.13595483
000020 44 b3 39 be e6 08 fc bd 6b 22 41 3d b4 6a 26 3e
       -0.1813479 -0.12306385 0.047151964 0.16251642
000030 70 bd e5 be cd b1 fe bd 6a b7 d5 bd 8a f3 fc 3d
       -0.44871092 -0.124362566 -0.10435374 0.12351139
000040 51 3e c8 bd d9 e4 82 3e f0 fc e6 be 70 29 79 be
       -0.09777511 0.25565222 -0.4511485 -0.24332213
000050 0d a3 f3 bc c3 8e a7 3e 94 3c 13 3d 52 95 3c 3d
       -0.029740835 0.32726106 0.035946444 0.04604084
000060 18 9d 47 bd d5 1f 0a 3e dc 3f 77 bc e9 42 a2 3d
       -0.0487338 0.13488705 -0.015090909 0.07922918
000070 1d 85 5c bc b3 47 77 be 94 9c 27 3d 32 1a 05 3d
       -0.013459471 -0.24148445 0.04092081 0.032495685
000080 01 b2 28 bd 5c a6 3c bd b0 cf 12 be c7 4b 10 3d
       -0.041185383 -0.04605709 -0.14337039 0.035228517
000090 cf 16 5b 3e 68 2c be bd 79 ba 28 bc 93 00 aa 3d
       0.2139542 -0.092858136 -0.010298365 0.08300891
0000a0 19 be 0f 3e f8 18 63 be d6 71 e2 bd 45 8c 59 bd
       0.1403736 -0.22177494 -0.11056869 -0.053112287
0000b0 9c c1 7c bd 72 89 89 be f0 a6 b7 bd 31 87 13 3e
       -0.061708078 -0.26862675 -0.08967388 0.1440704
0000c0 f8 5e b1 be f8 be 70 bd ff 90 74 3c 2d 06 6b be
       -0.34642768 -0.058775872 0.014927148 -0.22951575
0000d0 e8 ed 35 3e 38 05 24 3e 8a b0 90 3d f3 70 a9 be
       0.17766535 0.16017616 0.07064922 -0.33093986
0000e0 aa 68 da bd f4 02 0a 3e 99 72 57 ba 07 b3 c9 bd
       -0.10664494 0.13477689 -0.00082186755 -0.098486
0000f0 fa 60 b5 3d d6 92 70 be 4a 51 52 3d 32 4a 2a 3e
       0.088563874 -0.23493513 0.051347055 0.16629866
000100 a4 7e 7f be 17 c9 fd 3c ba c5 56 3e 23 53 bb bd
       -0.24950653 0.030979676 0.20973864 -0.091467164
000110 9f ce 1a be 6c 64 e7 3d 20 76 35 bb c2 d1 bc 3c
       -0.15117882 0.11298451 -0.0027688816 0.02304924
000120 b7 a5 70 3d 2d e8 65 3d 92 03 e5 3d 2d de ee 3d
       0.058751788 0.056129623 0.111823216 0.116634704
000130 05 51 c8 3e 3a 2b 29 3c 4d 9d 14 3d 96 8c d5 bd
       0.39124313 0.010325247 0.036282826 -0.10427205
000140 f8 09 cc 3e 1e 62 db be a6 eb 51 be 22 19 1c 3f
       0.39851356 -0.42848295 -0.20500049 0.6097585
000150 c4 36 c2 3d ba 88 6c be 2e 68 db 3d e1 7a 7e 3d
       0.09483102 -0.23099032 0.1071323 0.062128905
000160 a9 6c 1e be 98 be 80 3c 38 68 64 3d 7c 7f 2b 3d
       -0.15471138 0.015715882 0.055763453 0.041869625
000170 38 02 44 bd 50 9c 02 3f f9 66 4e bc 20 f7 80 3c
       -0.04785368 0.51019764 -0.012597793 0.015742838
000180 70 b3 fd bc d5 4d 88 3c 52 34 a5 be c0 63 c1 3e
       -0.030969352 0.016638676 -0.3226648 0.37771416
000190 1a 61 4a 3d 72 13 b3 bd e2 09 46 3d f2 d7 91 3e
       0.04940901 -0.08743943 0.04834927 0.28485066
0001a0 8a cf 8b 3d 4c 4b f4 3d 6e 57 df 3a 76 0b 21 3b
       0.06826694 0.11928424 0.0017039606 0.0024573482
0001b0 75 9f a6 be ae 63 dd bb 34 25 af 3d cd a8 af 3b
       -0.3254353 -0.0067562675 0.08552018 0.005360699
0001c0 d3 f3 bc 3d 7a 41 c0 3e 98 a5 fc be 52 be 9a bd
       0.09226193 0.37549955 -0.49345088 -0.07555832
0001d0 76 fe 0b 3c df 30 1e 3f 04 90 38 3d b6 62 f7 3d
       0.008544555 0.6179332 0.04505922 0.120793745
0001e0 bd af 92 bd 71 95 c7 3d a1 5b 04 bc 18 ed 01 3b
       -0.07162426 0.097453006 -0.008078487 0.0019825157
0001f0 d8 6f c6 3d d3 7f b6 be ec c7 d0 3d 31 3b 7e bd
       0.09689301 -0.35644397 0.10194382 -0.062068168
000200 4e 41 9c 3d 6d dc 02 3d 21 e2 0b bf 41 78 44 3d
       0.076296434 0.031948496 -0.5464192 0.047966246
000210 05 b5 50 3e 94 15 90 3d 9d 0b 26 3e 77 de 22 3d
       0.20381553 0.07035366 0.16215368 0.03976294
000220 30 07 39 be 38 59 ba 3d cf 23 5f 3d 66 92 86 3d
       -0.18069148 0.090990484 0.05447751 0.06570892
000230 c1 93 d9 be df 0c e1 bd 4c 13 9f bd b9 97 f9 bc
       -0.4249554 -0.10988783 -0.077673525 -0.030467855
000240 e1 b7 96 bd 77 7d ea 3e cb 0a 12 bf 27 36 6d bd
       -0.07359291 0.45798847 -0.5704772 -0.05791297
000250 33 8b fa 3c b7 27 17 3f 8b 6b 84 3d 83 c9 7b 3d
       0.030583953 0.59044975 0.06465825 0.061471473
000260 68 bf 23 be 90 36 7c 3e 7f e1 55 3d 94 ba 39 bc
       -0.15990984 0.24630189 0.052217003 -0.011335988
000270 c1 fc d7 bd 78 56 d3 be 3c b0 18 3e 9a 6b 31 bd
       -0.10546256 -0.41276908 0.14910978 -0.043315507
000280 9e bc 13 3e ec 74 1c bd 4f 30 99 3e cb e7 d6 bd
       0.1442742 -0.038197443 0.2991967 -0.1049343
000290 7f 75 33 be 1c ae 5e be bf 2b b7 3d 85 3a 6c bd
       -0.1752529 -0.21746105 0.08943891 -0.057672996
0002a0 36 20 1c 3e c2 ed b4 3d c1 b3 4b 3e 41 08 8d be
       0.15246662 0.08834411 0.1989279 -0.2754536
0002b0 12 75 b4 3e 10 ef b8 3d 06 99 d0 3d 31 ff 01 be
       0.35245568 0.090299726 0.10185437 -0.12695004
0002c0 e9 1d 0b 3e 56 06 22 3d 0a 4a 43 3c 32 b3 54 3e
       0.13585629 0.039556824 0.011919508 0.20771483
0002d0 c0 2d c3 3c 8f 8e b1 be fc 39 84 3d 34 9e dc bd
       0.023825526 -0.34679076 0.06456372 -0.10772362
0002e0 b7 64 c7 bd 5e 81 00 3e 3e c8 18 3e 2b 2b e2 3d
       -0.09736007 0.1254935 0.14920136 0.1104339
0002f0 ba 94 cd bd be cc b2 3e d3 fc d5 bc 6b 67 d3 3c
       -0.10038133 0.3492183 -0.026121533 0.02580615
000300 d4 2e 44 3e 17 8d 23 3e 08 da 2e 3f c1 18 7c be
       0.19158489 0.1597179 0.6830144 -0.24618818
000310 5d f6 ce bd db b6 3b 3d 71 6e ce bd 79 f9 87 be
       -0.10105584 0.04582868 -0.10079659 -0.2655752
000320 a0 85 d0 3d e1 3c c1 3d 38 b3 6b bd 39 2c f7 bd
       0.10181737 0.0943544 -0.057543963 -0.12068982
000330 b4 10 45 3f ea a6 21 be 6d 48 83 3d 68 93 50 bc
       0.7697861 -0.15786329 0.064102985 -0.012730457
000340 f4 f7 8f 3d 9e 9f ac be e7 72 f3 3e 58 43 b5 bc
       0.07029715 -0.33715528 0.475486 -0.022126839
000350 f7 60 5f 3d 58 bb 46 bf 7b e2 98 bd c8 64 48 be
       0.054535832 -0.77629614 -0.07465073 -0.19569695
000360 69 9c 45 3e 40 7f da bd d1 d9 67 bd 68 f2 dd 3d
       0.19297947 -0.10668802 -0.05660421 0.10837251
000370 31 11 f8 bd 8d a8 d8 3e 53 aa 04 be 7a fe 9b bd
       -0.12112654 0.42316094 -0.12955599 -0.07616897
000380 9b 60 93 bd eb bb 84 bd 57 20 34 3f d0 5e 70 be
       -0.071961604 -0.06481155 0.70361847 -0.23473668
000390 78 48 84 3d 8a 46 ec bd 5b 35 64 be b4 fb a5 be
       0.06459135 -0.11536892 -0.22285978 -0.32418597
0003a0 43 73 b1 bd 9c c2 2f 3b 1f f6 64 3e 4e ca 68 bb
       -0.086645626 0.0026818877 0.22359513 -0.0035520974
0003b0 c0 68 59 3f 24 c0 45 be 9e 17 90 bc 64 f9 47 3e
       0.8492546 -0.19311577 -0.017589387 0.19528729
0003c0 a1 77 13 3e 1b be 8a be af 66 a6 3e db 80 00 3e
       0.14401104 -0.27098164 0.32500216 0.12549154
0003d0 10 4d 54 3d 29 1f 43 bf 5c c0 da 3d 8a 8e bb bd
       0.051831305 -0.7621942 0.10681221 -0.091580465
0003e0 62 f2 6d 3e 5b cf 9b ba 16 b2 b4 3d b3 89 0a 3d
       0.23236993 -0.0011887358 0.0882303 0.033822726
0003f0 ba 4e 82 bd ab ab 46 3e cf a7 44 3b 0b bc 20 bd
       -0.06362672 0.19401424 0.0030007248 -0.03924183

fch.2.0.bias f4 [32]
000000 cb d9 b8 bd 48 83 d5 3d b3 e6 46 3e a0 5f c7 3c
       -0.09025916 0.104254305 0.19423942 0.02433759
000010 e8 19 28 bd b3 73 27 3d e8 3b b1 bd 06 a1 4e be
       -0.04104033 0.040881824 -0.08654004 -0.20178613
000020 5f 8a c3 3d 53 fd 22 bd 42 1a 09 3e 63 24 7b 3d
       0.095478766 -0.03979237 0.13388923 0.061313998
000030 c5 4b a0 3d 3a 6c bd bd cd 0b f3 3d ac 72 2d be
       0.07826952 -0.09249158 0.11867485 -0.16938275
000040 f1 e6 24 be d0 df 13 be c8 67 f2 3d da 45 fa bd
       -0.16103722 -0.14440846 0.11836201 -0.122203544
000050 1a 39 ce bc 9d 37 dc bc 96 04 46 be 3e 95 07 3e
       -0.025173713 -0.026881987 -0.19337687 0.13240525
000060 4f 38 fd 3c 6d 0a 14 3e 88 0e e2 bd 68 1c 2e 3d
       0.03091064 0.14457102 -0.11037928 0.04250756
000070 63 5d e7 3d d0 f9 a1 3c 38 23 df 3d 39 50 10 be
       0.11297109 0.01977244 0.10895389 -0.14093103

fce.0.weight f4 [1, 32]
000000 1f 35 8d bf d9 eb b2 bf 25 78 bc 3f 61 6e 89 bf
       -1.1031836 -1.3978225 1.4724165 -1.073681
000010 ab 64 98 bf 84 01 53 3f c9 64 3e 3f 30 d1 8e 3f
       -1.1905721 0.8242419 0.74372536 1.1157589
000020 75 27 66 bf 4e 0c 45 3f 2b f1 74 bf 56 c8 7d 3f
       -0.89903957 0.769719 -0.95680493 0.99133813
000030 ca ae a9 3f 72 84 a0 3f 24 19 57 3f 54 f7 7e bf
       1.3256466 1.2540419 0.84022737 -0.9959614
000040 63 58 84 3f d5 ce aa bf 4d 06 94 3f 70 14 a9 3f
       1.0339473 -1.334437 1.1564423 1.3209362
000050 c5 f6 63 bf f4 f4 77 bf c0 8c 5d bf de 7a 82 3f
       -0.89048415 -0.96858144 -0.8654289 1.0193746
000060 f9 41 65 bf ee 66 5c 3f 84 4a 8e 3f 70 0c 98 3f
       -0.8955379 0.8609456 1.111649 1.1878796
000070 d2 4f 8b 3f 1e 9b 83 3f ca 41 8b 3f 97 fb 80 bf
       1.0883734 1.0281713 1.0879452 -1.0076779

w1_layer.0.weight f4 [1, 34]
000000 ba c7 63 be 9e c4 ab 3d 63 d1 16 3e d2 03 57 bd
       -0.22244158 0.08387111 0.14728312 -0.052493878
000010 c6 8a 9d 3d 92 4d 54 bd bb c7 1b 3d 0f d7 8d bd
       0.076924846 -0.05183179 0.038032275 -0.06925785
000020 0a c0 ef 3d a2 1c 3a 3e 3a 05 0f 3d d8 d2 0d 3d
       0.117065504 0.18174985 0.034917094 0.034624904
000030 ae 89 69 bd c3 75 5d bd de 24 a1 bd 28 3c 9c 3d
       -0.057016067 -0.054067384 -0.0786836 0.076286614
000040 ea d5 41 3e 38 34 11 bc 74 09 07 be 7e a4 6a 3d
       0.18929258 -0.008862548 -0.131872 0.05728578
000050 c3 f9 77 3d ff 7c 5b 3c b2 75 d4 bc 96 59 95 3d
       0.060540926 0.013396501 -0.025935028 0.07292478
000060 de 83 fd bd 48 c6 8d bd 7d ea a7 3d a5 53 a8 bd
       -0.12378667 -0.06922585 0.08199022 -0.08219079
000070 91 bc ab 3d 3d a0 c3 3d da f7 05 3e df fc 9b bd
       0.083855756 0.095520474 0.13082829 -0.07616591
000080 07 89 be bd f6 74 52 3e
       -0.0930348 0.2055243
