american_put/exp1/model_path.pth (torch, 18530 bytes, 11 tensors)

fcs1.0.weight f4 [32, 2]
00000000: 9018 ac3e ba76 773d bb9c 423e 0f5a e53e
00000010: 6252 95be 58b0 14be 66d6 62bf 46dd e33c
00000020: 9a1d da3e 78e8 78be 79ee c4be 4816 0abe
00000030: d87f aabe e7a1 14bf 91b4 a3be eb4a 613d
00000040: b0f4 f73e e248 f4bd 50de abbe b849 43bd
00000050: 44a3 1abd aeec 503f 96bf 52be 3ae2 b2bd
00000060: 9701 5f3e 315b a73e 5081 013e 40d1 313e
00000070: b575 43be 29e4 77bf 2fe5 b4be b9fb bcbd
00000080: cd3c 6e3f e4da 0e3f 50b3 fdbe a625 543f
00000090: 2227 4cbf 6879 933e b599 13bf 4568 d2be
000000a0: 1501 03bd 8d4a 53bf 099c 8cbe cdce 9e3d
000000b0: 13c6 a1bd 3ea6 0f3d 7b81 1bbe 2acc b8be
000000c0: dd58 433f 96c8 123f 28d9 2e3f f743 e7be
000000d0: 4b2f 28be 0c3a 72bd 089e 713f 3c28 df3e
000000e0: 2548 773e d9d1 8ebd 46c3 8cbe 9b0e 53bf
000000f0: 9f53 683f 05b2 1e3f f0e9 84be dc9c 623f
0.3361249 0.06041596 0.190051 0.44795272 -0.29164416 -0.14520395 -0.88608396 0.027815472
0.4260071 -0.2430743 -0.3846319 -0.13485062 -0.33300662 -0.58059543 -0.319737 0.055003088
0.4842887 -0.11927964 -0.33568048 -0.047677726 -0.03775336 0.81611145 -0.20580897 -0.087345555
0.2177795 0.3268676 0.12646985 0.17364979 -0.1908787 -0.9683252 -0.35331103 -0.092277
0.93061525 0.5580275 -0.49550867 0.82869947 -0.7974721 0.28803563 -0.57656413 -0.41095176
-0.031983454 -0.8253563 -0.27462795 0.07754288 -0.07899108 0.03507065 -0.15186112 -0.36093265
0.7630747 0.5733732 0.68300104 -0.4516904 -0.16424291 -0.05913739 0.9438176 0.43585384
0.24148615 -0.06973619 -0.27492732 -0.8244416 0.90752596 0.61990386 -0.2595973 0.885206

fcs1.0.bias f4 [32]
00000000: 124f 493f 7aca d5be 03cc 523f 9532 2d3d
00000010: 76b1 473f 0150 413e 7b61 04bf 34e6 64bf
00000020: 70f9 203e 47b2 2e3f 7497 bd3e f00b 6abf
00000030: 6c82 9f3e 7091 343f 254d 123f 463b 65be
00000040: 87bc e83d 8988 adbe 4fb4 f0bd 37c9 0cbf
00000050: fa88 88be 5bf3 febe a035 3f3f b881 583f
00000060: db8a 1f3f 7512 cfbc 38b5 733f 5f6f 923e
00000070: c669 523e ac13 593f b626 033f 4bd9 6fbf
0.78636277 -0.4175604 0.8234255 0.042284567 0.7800516 0.18878175 -0.51711243 -0.8941376
0.15720153 0.6824078 0.37029612 -0.91424465 0.31154191 0.7053442 0.57148963 -0.22385892
0.11364084 -0.3389323 -0.11753141 -0.5499453 -0.26667005 -0.4979504 0.746912 0.84572935
0.6232125 -0.025277356 0.9519839 0.28600594 0.20548162 0.8479564 0.51230943 -0.9369094

fcs2.0.weight f4 [1, 2]
00000000: 26de 753e 9710 a13e
0.24010524 0.3145797

fch.0.0.weight f4 [32, 32]
00000000: 6ada 4d3e b935 dfbd b833 be3d 6a8d af3d
00000010: 2e2a b43c 28df c8bd a286 143c 9c9c 88be
00000020: 7514 223d 45fe 86bd 4a2d 6c3c 1d94 a1be
00000030: fc72 2dbd 1634 5a3e 5852 bc3d 2c80 9fbe
00000040: 5fcc fa3d 0fe2 79bd 5ae5 b2bd 7de1 48be
00000050: 1035 8ebd a2d1 8abe 5af1 2f3e f908 283e
00000060: 4882 af3e ccba 44bd 260f 663e a6f5 2a3e
00000070: 06b0 323e f0f2 863e 1f54 af3e 73b9 3bbe
00000080: ff49 9e3d 0902 64be 5630 b33d d19f 6d3e
00000090: 260d 9b3e cc10 0dbe 53f8 3dbe 640f 59be
000000a0: 8ed8 c73b 0a99 d23c 3542 0e3e 93b2 24be
000000b0: b0a4 0d3e b3dc 9a3e 50ae fbbc 9c48 afbe
000000c0: 0536 9e3e f976 47be ff2d fc3c 6c99 8fbe
000000d0: 0a93 73be 17b0 08be ca4f 103c a449 a23e
000000e0: 93f1 0e3e 9f22 3b3e fa3a c33d 808a 5b3e
000000f0: 379a db3d e496 b33d 8d42 953e cd68 5abe
00000100: 7269 433e 6680 0dbe f8a5 313e 6bf5 f83d
00000110: ff17 8a3e 4fa4 e8bd 1ef2 41be c376 49be
00000120: 49b5 9c3c 70e3 723e 0197 a13e df99 26bc
00000130: 48e8 4e3c ce29 be3e 77c3 2c3e 50c8 85be
00000140: a0ee ff3d 9374 193d 01b8 0abd b674 e6bd
00000150: 3887 a7be 5413 bdbd 28c8 953d 179d f53c
00000160: 4a48 4f3e 9a74 2d3e eeb7 493d f71e ad3e
00000170: 57d6 343e 0177 f83d f931 753e 9c25 e2bd
00000180: ffe1 aabd 87b3 ac3e a831 84bd 65df d6bd
00000190: e4a8 fbbd cee3 7dbd f963 563e c6ed 693e
000001a0: 2f11 35be 2c8a 0fbd b980 4fbe 1d35 a83e
000001b0: 1ebb 62be 2f88 44bd d9b4 bebe aae4 853e
000001c0: 54d1 c9bc 4b01 fa3b c8d4 263e d4ef d23d
000001d0: 45b0 a33e 57dd 683e 716f 54bd 2635 b4bb
000001e0: f1c8 45be 70f5 d8bd fb46 1abd ad60 94be
000001f0: 32e0 90be 37c4 9ebc bbda 48be 3e5e 003d
00000200: 8c9c 8b3e 8859 16be 41e5 c03d 6d24 4e3e
00000210: a6bb 973d 2010 973d 2b53 80bd a44f abbd
00000220: 8023 123e 0d3a 2f3d 8f11 983e 76cd c3bd
00000230: 9dda a53d fc9b 7c3d 0221 613e 8592 f4bd
00000240: 524b 24bd 1d1a b4bd 4a91 1cbe d9d1 54be
00000250: 2f88 c43d f970 35bc ba6d 303e 9106 583e
00000260: 4e13 9bbc b81b 793e b16c 3b3e 09fc f5bb
00000270: 15e5 1e3e d9e2 4d3e 7583 553e 9607 ebbb
00000280: aa3b d73d f973 71be 3f1c 8b3e ac58 f43d
00000290: 2a7c 963e 5ea2 573d 3cdd 6abe ad2b 3cbe
000002a0: 161f 7d3e de90 15be de2a d53c 1511 6dbe
000002b0: ff89 583e 7868 683e 979b 603e a0fd 43be
000002c0: 78b5 3f3e d228 44be 9388 ea3c f971 adbe
000002d0: 8a12 57bd 96e6 c63a cef9 2c3e 92f5 03bd
000002e0: 6914 ab3e 3cb6 dd3d 85b5 243e 75ca 333e
000002f0: 4f59 563d ea7b a83d 7a95 fd3d 5534 f9bc
00000300: 3ff8 f5bd b7cf 5e3e 2afe c9bd 1f49 12be
00000310: 90a6 70be 58e3 143e 669a 0d3e 8e2b a53e
00000320: 4150 7abe a509 a3bc 476d ecbc 8d1c 463e
00000330: 1245 22be 6568 88bd cb2d 2ebe 7f1b 833e
00000340: eb8e 10be 7921 5b3d 9582 71bd 50e3 e43d
00000350: 456c 9b3e 5ab6 9f3e 9f37 32be 08fc a1be
00000360: b117 85be 03dd 1bbd e513 dcbd 5073 bfbd
00000370: a8cb cbbe 9b5c 2abe 697d d6bd 8c8a 623e
00000380: 02c4 ff3c 35b7 d03d 8345 5abd 42f0 b437
00000390: ab7b 6cbc 3625 dfbd 522c de3d 69ee 9e3e
000003a0: 20ef b4bd c9f3 34be 39c3 9cbe ab3e cc3b
000003b0: 8712 f9bd e066 78be 3bf1 ccbd c5af 4d3e
000003c0: eec5 07bb 6a3a a53e 0aeb bf3b bd21 593e
000003d0: 8233 2a3e 38f2 523e 65ed 63bd f3b9 72be
000003e0: 6452 0dbd 2529 9dbd 871f bbbd ad3e b4bd
000003f0: 60e8 b6be e6dd 03bc 09b8 02be 707f 443e
0.2010285 -0.10898919 0.09287208 0.085718945 0.02199277 -0.09808189 0.009065302 -0.26681983
0.03957029 -0.06591467 0.014415095 -0.31558314 -0.042345986 0.21308932 0.09195393 -0.31152475
0.12246012 -0.061006602 -0.087351516 -0.19617267 -0.069437146 -0.27113062 0.17181912 0.16409673
0.34279084 -0.048029706 0.22466716 0.1669527 0.1744996 0.26357222 0.34243867 -0.18332462
0.077289574 -0.22266401 0.08749454 0.23205496 0.3028347 -0.13775939 -0.1855176 -0.21197277
0.0060988134 0.02570774 0.13892443 -0.16083746 0.13832355 0.30246505 -0.030722767 -0.34235084
0.3090059 -0.19478978 0.030783651 -0.2804674 -0.2378656 -0.13348423 0.008808086 0.31696808
0.13959341 0.18274926 0.09532733 0.21439552 0.107227735 0.087690145 0.29152337 -0.21329041
0.19083193 -0.13818511 0.17348468 0.12156185 0.26971433 -0.113594644 -0.18940017 -0.1967421
0.019129412 0.23719573 0.3156052 -0.010168522 0.012628622 0.3714127 0.16871439 -0.2612939
0.12496686 0.03746469 -0.033866886 -0.112527296 -0.3272035 -0.09232202 0.073135674 0.029982133
0.2024242 0.16939011 0.049247675 0.33812687 0.17659889 0.12132073 0.23944844 -0.1104233
-0.083438866 0.33730718 -0.06454784 -0.10491828 -0.12288073 -0.06198483 0.20936574 0.2284461
-0.17682336 -0.03504388 -0.20263948 0.32853022 -0.22141692 -0.047981437 -0.3724735 0.2615102
-0.024635948 0.0076295487 0.16292107 0.1029965 0.3197042 0.22740684 -0.05186409 -0.0054995
-0.19314934 -0.105936885 -0.03766535 -0.28980008 -0.28296047 -0.019380672 -0.19614689 0.031339876
0.27267873 -0.14682591 0.09418727 0.20131083 0.07408838 0.073761225 -0.06265863 -0.083647996
0.14271355 0.04277997 0.29700896 -0.09560673 0.08098338 0.061672196 0.21985248 -0.11942009
-0.040110894 -0.08794043 -0.15289798 -0.20783176 0.095962875 -0.011074298 0.17229357 0.21096255
-0.018930104 0.2432698 0.18303181 -0.0075068516 0.15517075 0.20106067 0.20850928 -0.007172535
0.10509427 -0.23579396 0.27169988 0.11930975 0.29391605 0.05264508 -0.22935957 -0.18376036
0.2471889 -0.14606044 0.026021417 -0.23151048 0.21146391 0.22696102 0.21934353 -0.19139719
0.18721569 -0.19156197 0.028629577 -0.33876017 -0.052507915 0.0015174921 0.16892168 -0.032216616
0.3341401 0.10825774 0.16084869 0.175577 0.052331265 0.0822676 0.12382026 -0.030420462
-0.1201024 0.21758924 -0.09862931 -0.14285706 -0.23501039 0.1453985 0.1382843 0.32259792
-0.24444677 -0.01990206 -0.028860701 0.19346829 -0.1584666 -0.06660537 -0.17009656 0.25606915
-0.14117019 0.05349872 -0.058962423 0.11176169 0.3035604 0.3119381 -0.1740403 -0.31637597
-0.25994638 -0.03805257 -0.10745982 -0.09348166 -0.39803815 -0.16636889 -0.10473139 0.22123164
0.031221393 0.10191194 -0.053288948 2.156955e-05 -0.014433782 -0.10895769 0.10848297 0.31041268
-0.08834672 -0.17671122 -0.30617693 0.0062330565 -0.12161737 -0.24257994 -0.100069486 0.20086582
-0.002071734 0.3227113 0.0058568763 0.21204276 0.16621211 0.20600212 -0.05564632 -0.23703746
-0.034502402 -0.07673863 -0.09136873 -0.08801017 -0.35724163 -0.00804851 -0.12765516 0.19189239

fch.0.0.bias f4 [32]
00000000: c96e d43d 8f26 c43d 2146 413e 7197 45be
00000010: 6c06 013e 47f2 cabb d704 27bd 265b 8cbe
00000020: 6c33 8e3e 74c5 c43d ce56 5abd facd bebe
00000030: 1110 983e 7d2f 2a3c f298 a43d 8d40 0a3e
00000040: c1df 84be c034 bd3e 5300 7dbe cda7 c9bd
00000050: 5fda f63c 6421 9bbe 9ec5 aa3c 290f 843e
00000060: 159b 8a3e 73c2 86be d539 86bc 1ff3 e3bd
00000070: 64f3 a8be c7fb 323e 0c38 56be d770 97bc
0.10372693 0.09577667 0.18874408 -0.19296052 0.12600106 -0.0061934325 -0.0407761 -0.2741329
0.27773607 0.09607974 -0.05330544 -0.37266523 0.29699758 0.010387299 0.080369845 0.13501187
-0.2595196 0.36954308 -0.24707155 -0.098464586 0.030133424 -0.30298913 0.020846184 0.25792816
0.27071443 -0.26320228 -0.016384998 -0.11130356 -0.32998192 0.17478858 -0.20919818 -0.018486423

fch.1.0.weight f4 [32, 32]
00000000: 31a1 c63d bcdb 8c3e d446 ddba fb1d 25bd
00000010: 146d 87bb 3388 cd3d 77b3 46be 2463 94bb
00000020: 5932 433e fc98 353d bbca 9ebd be63 c1bd
00000030: ab9a 3b3e c76c a23d 3964 483e b313 0f3c
00000040: 3363 d53d cb30 2f3e 08c2 743d a6a6 8cbe
00000050: 1943 77be fe4f 02be 2ab3 093d 8668 603e
00000060: 83bd 7d3d 9e94 e63d 1a69 7c3e 8212 d1bc
00000070: 4bfb a6bd 1801 0e3d e626 413e fd50 e5bd
00000080: 8c30 4abc dbc7 03bd ecf0 653d 5482 7c3b
00000090: b44d 9fbd 18dc 483e ee61 1b3d 99a7 30bd
000000a0: 9caa 9b3e 62ae 303e 37df 3dbe 6e43 1c3c
000000b0: ce25 eb3c ca85 a83c da73 5d3e 6744 443d
000000c0: 2d45 2dbd 655d a3bd 6305 c4bd e338 8fbe
000000d0: 2643 613d 7994 a0be 1ea9 3ebd 429b 113e
000000e0: da3f 2c3d 3908 17be e48f 363d a20a 793e
000000f0: 4524 273e f6b4 483e 8966 133e 8e1b 9bbe
00000100: e537 653e 2fef ff3d a58f fd3d 9d32 b7be
00000110: c2ad 84bd 19be 0c3c 2c54 70be 16cb a6be
00000120: 1335 f23c 7b48 ed3e 6898 573d 370b 19bd
00000130: ec35 4e3e 0af8 2f3e 5186 3bbc fa3a 8e3e
00000140: 25f5 96bc 8ad8 0fbe f748 16be fd5a 6abd
00000150: 86c2 143e 57c4 bd3d 7e93 2a3e 4317 1abd
00000160: b713 343d 9158 bc3d d033 503e fef3 6f3c
00000170: 593a 753e f12e 0d3d fb8f 333e 8cc0 2dbe
00000180: b7d9 2abe e125 653d f2d7 85bd 0068 1b3e
00000190: d149 6bbe 6649 44be b7fa 423e e098 883e
000001a0: 4e26 3bbd f41c 8cbe 0106 11be 15d1 fc3d
000001b0: 2b9d 46be b6a9 17be 6e8c 233d 71bf 0ebd
000001c0: cc48 dcbd b245 463e 3cf0 893e 4fa8 563e
000001d0: 59f5 4f3e f6d4 ae3d 032e f53c 1d6b 29be
000001e0: ad22 05be b111 38be f934 68be 4d49 cdbd
000001f0: 782f 7cbd ad86 bd3d de74 56be b621 543e
00000200: 8d5d 103e 8728 6bbb 9283 563e c2d5 963e
00000210: 70dc 653e 2f0d 633d cfb3 a63d 8135 c73c
00000220: a819 9c3c 0077 113d 7ed1 c63d 7dbd 87be
00000230: 9631 8d3d 664b 3b3e 962b 643e 5089 043e
00000240: cd9d 0bbe ae91 203e 068e f3bd 9342 48be
00000250: 3f05 da3d 49cd 5e3c 84a2 0ebe d619 6d3e
00000260: f603 1b3e b7f7 95bd 9240 173e 96a7 f63d
00000270: d9d1 24bd 9cc1 243e a23e cc3d a796 9abd
00000280: bd02 193e aa8a 9bbd 7bc8 483e e9c9 413b
00000290: 96cf 09bd 189d 2d3d dccd 123e b281 85be
000002a0: aa43 9b3e 2a84 3dbe efed 0abd a7b3 13be
000002b0: 1414 2e3e ce30 1e3e 00f4 8b3d 1b9c b3bc
000002c0: bcf9 193e 75af 60bd b3c9 8abe e692 21be
000002d0: c59f 9fbd 4293 43be d7ec 173e 1203 893e
000002e0: 1f0e 55bc 92ec 6c3d a088 d4bd caf3 14be
000002f0: 4aae 423e 7830 1e3e 618e 853d 1bbd a83c
00000300: fe3c 4dbe 3087 cfbc 28da 48be d007 e1bd
00000310: 974b 91be 4249 35be 725c 353c b14e 833e
00000320: 2aef efbd 065c 95bd c2c7 213d c2c6 453e
00000330: 5af6 55be 0c61 45bd f6d8 d8bc 57b9 05be
00000340: 8ce2 3ebe 2297 823e a818 d53d 78e3 843d
00000350: 261c a13d 8b9e 963e a4e2 e93c 9cbf 6a3d
00000360: 74f5 d1bd 186f 46be 78f5 6cbe 994c efbd
00000370: 34f7 6fbe 74d4 823c c5df 783d eab7 293c
00000380: 1477 73be 8bae 00be 8ea4 7bbe 6ba4 2c3e
00000390: fa41 903d 3454 05be 75ff 3fbd b020 ef3d
000003a0: 8e18 98be 9996 c2be edc7 043e 9fd6 a23c
000003b0: 7dc2 61be 388f 54be 75a8 45bd 5e8c 1fbe
000003c0: 8b9f a13d 9144 033e 2b86 993e 4808 0bbd
000003d0: 6fb7 683e c8e4 ab3c e482 43be b7dc 573d
000003e0: d258 c63c 06f1 6ebe 64a9 7a3d f2e5 423c
000003f0: a41f 75bd e455 8ebe d70a 07be 3195 f03c
0.096987136 0.27511394 -0.001688207 -0.040311795 -0.004132876 0.100357436 -0.19404398 -0.00452842
0.19062175 0.04433535 -0.077535115 -0.094428524 0.1832072 0.07930904 0.19569482 0.008732724
0.104193114 0.17108457 0.059755355 -0.27470893 -0.2414669 -0.12725827 0.03361813 0.21914873
0.06194831 0.11258815 0.24649468 -0.02552152 -0.08153399 0.03466901 0.18862495 -0.11197088
-0.012340676 -0.03217302 0.056137964 0.003852983 -0.077784926 0.19615209 0.03793519 -0.043128584
0.30403602 0.17254022 -0.18542181 0.009537561 0.02870455 0.020571608 0.21626225 0.047916796
-0.0423023 -0.07976798 -0.0957134 -0.2797309 0.05499568 -0.31363276 -0.046548 0.14219382
0.04205308 -0.1474923 0.04457082 0.24320462 0.1632243 0.19600281 0.14394583 -0.3029446
0.22384603 0.124967925 0.12380914 -0.35780802 -0.06478454 0.008590245 -0.23469609 -0.32576817
0.029566323 0.4634436 0.05263558 -0.03736421 0.20137757 0.17184463 -0.011445598 0.2777937
-0.01842744 -0.14047447 -0.14676271 -0.05721568 0.1452733 0.092659645 0.16657826 -0.03761984
0.043964114 0.0919658 0.20332265 0.014645575 0.23948039 0.034468595 0.17535393 -0.16967982
-0.16684614 0.055944327 -0.06535329 0.15176392 -0.22977377 -0.19168624 0.19040953 0.26679134
-0.045690827 -0.2736584 -0.14162447 0.12344567 -0.19395892 -0.14810833 0.039928846 -0.03485054
-0.107560724 0.19362524 0.26941097 0.20962642 0.20308436 0.08536713 0.029929167 -0.16544767
-0.13001509 -0.17975499 -0.22676457 -0.10023747 -0.061568707 0.09254203 -0.20943019 0.20715985
0.14098187 -0.003588231 0.20948628 0.2945996 0.22447371 0.055432495 0.081397645 0.024317505
0.019055203 0.035513878 0.09707926 -0.26511756 0.068942234 0.18290481 0.22282252 0.12943006
-0.13634415 0.15680572 -0.11892323 -0.19556646 0.10645532 0.0135987485 -0.13929182 0.23154387
0.1513823 -0.073226385 0.14770725 0.12043683 -0.04023919 0.16089481 0.09972884 -0.07548266
0.14942451 -0.075948074 0.19607727 0.002956981 -0.033645235 0.042386144 0.14336342 -0.26075512
0.3032506 -0.18507448 -0.033918317 -0.14424 0.16999847 0.15448305 0.06833649 -0.021925023
0.15036672 -0.05485483 -0.2710701 -0.15778694 -0.077941455 -0.19099143 0.14836441 0.26760155
-0.013003855 0.0578428 -0.10377622 -0.14546123 0.19011799 0.15448177 0.06521297 0.020597985
-0.20042798 -0.025333017 -0.1961447 -0.10987818 -0.28377983 -0.17703727 0.011069404 0.25645974
-0.11715539 -0.07292943 0.039497145 0.19314101 -0.20894757 -0.048188254 -0.026470643 -0.13058983
-0.18641108 0.2550593 0.104050934 0.06488699 0.07866697 0.29417834 0.028550453 0.05731164
-0.102518946 -0.19378316 -0.23140514 -0.11684532 -0.23434144 0.015970446 0.06076028 0.01035879
-0.23775893 -0.12566583 -0.24574491 0.16859595 0.07043834 -0.13020402 -0.046874482 0.116761565
-0.29706234 -0.38005522 0.1296689 0.01987773 -0.22046848 -0.20757759 -0.048256356 -0.1558089
0.078917585 0.12819125 0.29985175 -0.033943444 0.22726224 0.020983115 -0.190929 0.052700724
0.024212275 -0.2333413 0.0611967 0.011895644 -0.059844628 -0.27799904 -0.13187729 0.029368015

fch.1.0.bias f4 [32]
00000000: 3c3b 1b3e c8ec 2b3e 864b 55bc 7b8e 9cbd
00000010: 6232 523e 15ca 683e 53a3 1c3d d1f6 5fbe
00000020: d666 0a3e 58a6 673e 51c0 453d 567f c73b
00000030: 810c 623e 7419 603d 6c26 b1bc c1b6 b23d
00000040: 7030 58be baa3 cb3c c31a 56bd 9f2e 7fbd
00000050: 25bd 073e faeb 32be a18c 91bd aa13 4e3e
00000060: 386b 743e aa25 59bd 9a37 083d 62eb 0cbe
00000070: 41aa 43be 498a 7f3e c9d0 42be 5bc8 cc3c
0.15159315 0.16789544 -0.0130184945 -0.076443635 0.20527032 0.22733338 0.038241696 -0.21871497
0.13515791 0.22622049 0.04827911 0.0060881777 0.22075082 0.054711774 -0.021624766 0.08726264
-0.21112227 0.024858344 -0.052271616 -0.06230032 0.13255747 -0.1747283 -0.07106901 0.20124689
0.23869026 -0.053014435 0.03325615 -0.13761666 -0.19107915 0.24955095 -0.19024958 0.02499788

fch.2.0.weight f4 [32, 32]
00000000: f75c 3f3e 8e80 933d 7459 193e 58b6 603d
00000010: ea3c a1bd 2e0e 81bd 1464 8c3d cd9b 87bd
00000020: 4a1b b63d 36aa 0dbe 2508 353e 8e87 53be
00000030: d851 363e a508 623c aff8 d3bb d532 70bd
00000040: bf03 08be 0ec3 cf3d c4b6 10be 07cf a1bd
00000050: ed4e ecbd f4ed 1bbe edde 463e 74f3 c9bc
00000060: 73be 073e 5fb5 b3bd df74 cb3d b78f 663d
00000070: 5ddc 73bc 5e15 da3d c236 283d d35e 6dbe
00000080: 04d4 a63d 1be9 003e 0b55 c73d 62bc 20be
00000090: 475a 073d 01ee ddbd f71c d7bc c6bb c9bd
000000a0: 6731 ee3d c5bc 36bb ec30 9bbd 8aa7 cabb
000000b0: f120 2e3d d2be 413e 349c 363e 9758 8bbc
000000c0: 0d33 0dbe 9e91 243e 3149 0ebd 41f0 bdbd
000000d0: 3360 73be cf26 083e 758a ad3e 8f85 4fbd
000000e0: 73ee 903d 3742 82be 00b5 8b3d 4b5e 813e
000000f0: 494e 013d ea48 393e d56d 483e f004 283d
00000100: 21fd 1bbd eed0 60bc c7b3 cc3a f065 a63d
00000110: 9708 393e 1914 e43b 2075 103d 33da 15be
00000120: 3162 7a3e 03bd 1cbc 5fe6 8abd 77c4 3bbe
00000130: 7ec0 2b3e 3d6e aabd 53a4 443e e7e0 763d
00000140: 4751 46be a020 5abe 8d66 ab3c 3e11 6d3b
00000150: 15f3 f23d ca8a 5ebc 682b dcbd 1917 7c3e
00000160: 5e2a 0b3d 7b13 26be c152 d53d 7a5d df3c
00000170: 0757 323e 83b1 a73c 3e8f b4bd 88ce ac3c
00000180: 895e 273c 8200 0d3d afb0 98bd 96ab f53d
00000190: d81c 19bd 5d08 2abe 2752 603e 024d 75bd
000001a0: 6dd1 24be a896 82bd e2e5 6b3d 99f6 f7bc
000001b0: a77a 84bd 8117 21be 9d9b 60bd 3907 013d
000001c0: e274 05be 3dda 353e f325 af3c 8e15 f6bc
000001d0: 4ac9 853d 03cc 09bd f065 783d d17f 7dbe
000001e0: 9599 903d 4c6a 7bbc ef48 8cbe 2c77 013e
000001f0: e119 1c3d 0274 c93d 51bd 0dbd 364a 083d
00000200: bb62 4e3e 56a0 173e ef7a 443e 2a4c e73d
00000210: cd30 8ebd c037 90bd dda9 0fbe b096 bebb
00000220: dd83 253e 02b1 c1bc 4a23 a73d f99b d4bd
00000230: e887 a2bd aa57 11bd 1250 423e 0875 463c
00000240: 9ac6 85be 8ab9 573e 1941 113b 4b97 9cbd
00000250: 407e 6e3d da71 4cbd eb4f 203e a6f5 01be
00000260: af17 dbbd 0c30 853c 09e2 21bd c74c 78bd
00000270: e12e a1bd 5a40 ca3d 00ad 6abe aef7 b43d
00000280: 2254 4e3e 4260 173e 94fa 133e 7718 d7be
00000290: d7cc f33d a0da 573e 7772 b8bd 974b c9be
000002a0: 5dfa 563e f29f 1d3e 37f4 0fbe 2db2 78be
000002b0: 0917 0e3e 3089 433e bfb2 733e e086 fe3d
000002c0: 6b85 303e 6881 7fbd db13 103d 7298 10bd
000002d0: 750c 473e 9133 5cbe df25 8d3c 5299 973c
000002e0: 1eaf 0c3e e68a 22be cb59 22bd 88f7 59be
000002f0: ce46 383d 5535 9f3d 41a5 e43d f321 36bd
00000300: 9ec3 fe3c 2001 4a3d fd6e 3ebe e40f bd3d
00000310: 04ec 83be c7af d1bc 98f9 c5bc ea6d 533e
00000320: 36bf 92be 3328 37be 2b87 d93c a7d7 b6bd
00000330: b4f9 37be 6ea2 7abe 6ca0 fcbd 0cb4 57be
00000340: 5991 adbd 1ea7 0f3e 2716 f83d fa1c 1b3e
00000350: 560e c2bb 120a 4e3e fa05 d63d f54f 14bd
00000360: 019f 88bc b255 4dbe 3d32 0e3d a456 1c3e
00000370: de45 c2be 1555 363d 6cc6 03be 85be 063e
00000380: b1c8 24bd d556 51bd 8b2d 8bbe ce18 e93e
00000390: 40fd 123e 4ca7 ddbd 8126 653e 8a74 773e
000003a0: 020a 72be 1e93 a2be 74bb b83d 1cb7 a93d
000003b0: c5b6 63bd 03e6 82bd 901f c13d 429e cfba
000003c0: 00c9 25be ad12 183e de7c adbd 5003 64bd
000003d0: ce70 643c a6ee 03be b912 5bbe 68be d33d
000003e0: 9365 3fbe f86a b33e b9e2 823d 4703 6c3e
000003f0: c50b bdbd e1d1 16be d449 c83a 14d3 463e
0.18687807 0.07202254 0.1497553 0.054861397 -0.078729466 -0.06301533 0.06855026 -0.066215135
0.08891924 -0.13834462 0.17678888 -0.20657179 0.17804658 0.013796006 -0.0064688544 -0.058642227
-0.13282679 0.101446256 -0.1413222 -0.079008155 -0.115384914 -0.1522749 0.19420977 -0.02465222
0.13256244 -0.08774828 0.09934401 0.0562894 -0.014884082 0.10648607 0.041067846 -0.23180704
0.081459075 0.12588923 0.097330175 -0.15696862 0.03304508 -0.10836411 -0.026258929 -0.09850268
0.116305165 -0.0027883512 -0.075776905 -0.006184523 0.042511884 0.18920448 0.17833024 -0.017010016
-0.13789006 0.16071174 -0.03473777 -0.092743404 -0.23767166 0.13296054 0.33894697 -0.05066448
0.070767306 -0.25441143 0.068216324 0.25267252 0.0315688 0.18094221 0.19573148 0.041020334
-0.0380832 -0.013721688 0.0015617543 0.08124912 0.18069683 0.0069604036 0.03526795 -0.14634018
0.2445152 -0.009566548 -0.06782221 -0.18336664 0.16772649 -0.083218075 0.1920331 0.060273077
-0.19366942 -0.21301508 0.020922923 0.0036173607 0.118627705 -0.013582895 -0.107504666 0.24618186
0.03397595 -0.16218369 0.10416175 0.027266253 0.17416011 0.020470386 -0.08816384 0.021094576
0.01021541 0.034424312 -0.07455575 0.11995618 -0.037381023 -0.16604753 0.21906339 -0.059887893
-0.16095515 -0.06376392 0.05759228 -0.030268954 -0.064687066 -0.15731622 -0.054835904 0.03150103
-0.13032869 0.17759033 0.0213804 -0.030039575 0.065325335 -0.033641826 0.06064409 -0.2475579
0.070605434 -0.015345167 -0.27399394 0.12643117 0.038110618 0.0983658 -0.034604374 0.033273898
0.2015485 0.14807257 0.1918752 0.11293824 -0.06942902 -0.070418835 -0.14029641 -0.005816303
0.16163583 -0.023643974 0.08161028 -0.10381312 -0.07936078 -0.035483994 0.18975857 0.012112863
-0.26128083 0.21066871 0.0022164045 -0.07646044 0.05822587 -0.049913265 0.15655486 -0.12691364
-0.10697877 0.016258262 -0.039522205 -0.060620096 -0.078702696 0.09875555 -0.22917557 0.08836304
0.20149282 0.14782813 0.14451057 -0.42010853 0.119043045 0.21079493 -0.090062074 -0.39315483
0.20993944 0.15393046 -0.14058004 -0.24286719 0.13875975 0.19095302 0.23798655 0.12428069
0.17238395 -0.06237927 0.035175186 -0.035301633 0.19438346 -0.21504046 0.017229972 0.018505726
0.13738677 -0.15873298 -0.039636414 -0.21285832 0.0449894 0.07773844 0.11164332 -0.04446597
0.031099137 0.04931748 -0.18597026 0.092315465 -0.25766003 -0.025596512 -0.024166867 0.20647398
-0.28661507 -0.17886429 0.02655371 -0.08927851 -0.17966348 -0.24476025 -0.123352855 -0.21064776
-0.084749885 0.14028594 0.121136 0.15147772 -0.005922119 0.20121029 0.10450359 -0.036209065
-0.016677381 -0.20052221 0.03471588 0.15267426 -0.3794393 0.044514734 -0.1286866 0.13158615
-0.040230457 -0.0511082 -0.27183184 0.45526737 0.1435442 -0.10822925 0.2237797 0.2416555
-0.2363663 -0.31752867 0.09020129 0.082868785 -0.055594224 -0.063915275 0.09429848 -0.0015840011
-0.16189957 0.14850874 -0.08471082 -0.05566722 0.01394291 -0.12884006 -0.21393861 0.103390515
-0.18691091 0.35042548 0.063909 0.23048125 -0.092307605 -0.147285 0.0015280792 0.19416457

fch.2.0.bias f4 [32]
00000000: 3a45 3d3d 8ece 29bc fbce 0c3c 0f88 11be
00000010: 5205 233e 25ab dcbd b05a 88bc 002e b83d
00000020: 3982 d93d da1c 053e 1208 1dbe ac7f 74be
00000030: 0bd7 3c3e 1e95 dbbc 970b 00bd 6429 e93d
00000040: 05d9 1ebe dfdc 7d3e 7959 8abc 808a 8e3c
00000050: 306f 6dbd 6647 e8bd f90c 1a3e fb01 f1bd
00000060: bdaa f23d 3ccf 893d 9607 903d b3d9 273d
00000070: bc0d f93d 7d4a 2c3e 7756 833d 3d3f bc3d
0.046208598 -0.010364188 0.00859427 -0.14212058 0.15919998 -0.10774831 -0.016644806 0.08993149
0.10620541 0.12999287 -0.1533511 -0.23876828 0.18441407 -0.026804503 -0.031261053 0.11384848
-0.15512474 0.24791287 -0.016888367 0.017400026 -0.057967365 -0.11341743 0.15044011 -0.11767956
0.11848972 0.0672898 0.07032697 0.0409791 0.12160823 0.1682529 0.06412976 0.09191749

fce.0.weight f4 [1, 32]
00000000: 3822 c4be 001b a3be 269a b9be 75c4 f03e
00000010: be38 93be 67f0 ebbe d4e6 ba3e d4f0 ad3e
00000020: d2a3 9abe 7c5c cfbe a8c0 d73e 9159 953e
00000030: b96f e2be d4f3 dbbe 171e cfbe a656 afbe
00000040: 9bab f23e 3fbe bdbe 138e 8f3e 0951 953e
00000050: 62bc 00bf b1c2 ba3e bef0 d6be 9be5 f2be
00000060: b39c c8be 5d43 e63e 4412 a0be 59a6 c93e
00000070: 809f c23e 7328 e5be a6d7 e83e 0f9a d33e
-0.38307357 -0.31856537 -0.36250418 0.47024885 -0.28754228 -0.4608185 0.36504233 0.339728
-0.3020311 -0.40500247 0.42139173 0.29169896 -0.44225863 -0.42959464 -0.40452644 -0.34245795
0.4739655 -0.3705921 0.28038082 0.29163387 -0.5028745 0.36476663 -0.41980547 -0.474408
-0.39182052 0.4497327 -0.31263936 0.39384726 0.38012314 -0.44757423 0.45477027 0.41328475

w1_layer.0.weight f4 [1, 34]
00000000: ec8e e0bd 9a45 0fbe 2762 8f3d e9e9 54be
00000010: c4a3 55be af26 84be b0de 52bd 7b92 f8bc
00000020: 6221 05be 19b4 f5bd 25d8 42bd 9853 803e
00000030: cfb5 72be 0688 a9bd d54f e8bd f128 8dbe
00000040: bcc8 0b3c 8af2 56bd 9aa1 403e fcef 323e
00000050: 9849 97be 8d14 c9bd 53c1 aebc 7900 d2bd
00000060: b14c 33be d85b a2bd a7b5 26be f0bd 4d3e
00000070: bc6b 6c3e d3e7 87be 3007 d63c fb47 9bbd
00000080: 9ee6 223e 8946 873d
-0.1096476 -0.13991395 0.07001143 -0.20792355 -0.20863253 -0.25810763 -0.051481903 -0.030343285
-0.13001016 -0.119972415 -0.047569413 0.25063777 -0.23702167 -0.082778975 -0.11343352 -0.27570298
0.0085317455 -0.052477397 0.18811646 0.1747436 -0.29548335 -0.09818373 -0.021332419 -0.102539964
-0.17509724 -0.07927674 -0.16280232 0.20091987 0.23087972 -0.26544055 0.026126474 -0.075820886
0.15908286 0.066052504
